…
---------------------------------------self.train_loader ----------------------------------------------
[2022-06-26 15:08:56] [INFO]: {'lr': 0.1, 'momentum': 0.9, 'solver': 'SGD', 'weight_decay': 0.0005}
[2022-06-26 15:08:56] [INFO]: {'gamma': 0.1, 'milestones': [150, 200, 250, 350], 'scheduler': 'MultiStepLR'}
[2022-06-26 15:08:56] [INFO]: Parameters Count: 9.70900M
[2022-06-26 15:08:56] [INFO]: Model Initialization Finished!
-----------run_train------------
DDPPassthrough(
  (module): SLR_pose3D(
    (data_bn): SyncBatchNorm(117, eps=1e-05, momentum=0.1, affine=True, track_running_stats=True)
    (l1): TCN_GCN_unit(
      (gcn1): unit_gcn(
        (down): Sequential(
          (0): Conv2d(3, 64, kernel_size=(1, 1), stride=(1, 1))
          (1): SyncBatchNorm(64, eps=1e-05, momentum=0.1, affine=True, track_running_stats=True)
        )
        (bn0): SyncBatchNorm(192, eps=1e-05, momentum=0.1, affine=True, track_running_stats=True)
        (bn): SyncBatchNorm(64, eps=1e-05, momentum=0.1, affine=True, track_running_stats=True)
        (relu): ReLU()
      )
      (tcn1): unit_tcn(
        (conv): Conv2d(64, 64, kernel_size=(9, 1), stride=(1, 1), padding=(4, 0))
        (bn): SyncBatchNorm(64, eps=1e-05, momentum=0.1, affine=True, track_running_stats=True)
        (relu): ReLU()
        (dropS): DropBlock_Ske()
        (dropT): DropBlockT_1d()
      )
      (relu): ReLU()
      (dropSke): DropBlock_Ske()
      (dropT_skip): DropBlockT_1d()
      (sigmoid): Sigmoid()
      (conv_ta): Conv1d(64, 1, kernel_size=(9,), stride=(1,), padding=(4,))
      (conv_sa): Conv1d(64, 1, kernel_size=(39,), stride=(1,), padding=(19,))
      (fc1c): Linear(in_features=64, out_features=32, bias=True)
      (fc2c): Linear(in_features=32, out_features=64, bias=True)
    )
    (l2): TCN_GCN_unit(
      (gcn1): unit_gcn(
        (bn0): SyncBatchNorm(192, eps=1e-05, momentum=0.1, affine=True, track_running_stats=True)
        (bn): SyncBatchNorm(64, eps=1e-05, momentum=0.1, affine=True, track_running_stats=True)
        (relu): ReLU()
      )
      (tcn1): unit_tcn(
        (conv): Conv2d(64, 64, kernel_size=(9, 1), stride=(1, 1), padding=(4, 0))
        (bn): SyncBatchNorm(64, eps=1e-05, momentum=0.1, affine=True, track_running_stats=True)
        (relu): ReLU()
        (dropS): DropBlock_Ske()
        (dropT): DropBlockT_1d()
      )
      (relu): ReLU()
      (dropSke): DropBlock_Ske()
      (dropT_skip): DropBlockT_1d()
      (sigmoid): Sigmoid()
      (conv_ta): Conv1d(64, 1, kernel_size=(9,), stride=(1,), padding=(4,))
      (conv_sa): Conv1d(64, 1, kernel_size=(39,), stride=(1,), padding=(19,))
      (fc1c): Linear(in_features=64, out_features=32, bias=True)
      (fc2c): Linear(in_features=32, out_features=64, bias=True)
    )
    (l3): TCN_GCN_unit(
      (gcn1): unit_gcn(
        (bn0): SyncBatchNorm(192, eps=1e-05, momentum=0.1, affine=True, track_running_stats=True)
        (bn): SyncBatchNorm(64, eps=1e-05, momentum=0.1, affine=True, track_running_stats=True)
        (relu): ReLU()
      )
      (tcn1): unit_tcn(
        (conv): Conv2d(64, 64, kernel_size=(9, 1), stride=(1, 1), padding=(4, 0))
        (bn): SyncBatchNorm(64, eps=1e-05, momentum=0.1, affine=True, track_running_stats=True)
        (relu): ReLU()
        (dropS): DropBlock_Ske()
        (dropT): DropBlockT_1d()
      )
      (relu): ReLU()
      (dropSke): DropBlock_Ske()
      (dropT_skip): DropBlockT_1d()
      (sigmoid): Sigmoid()
      (conv_ta): Conv1d(64, 1, kernel_size=(9,), stride=(1,), padding=(4,))
      (conv_sa): Conv1d(64, 1, kernel_size=(39,), stride=(1,), padding=(19,))
      (fc1c): Linear(in_features=64, out_features=32, bias=True)
      (fc2c): Linear(in_features=32, out_features=64, bias=True)
    )
    (l4): TCN_GCN_unit(
      (gcn1): unit_gcn(
        (bn0): SyncBatchNorm(192, eps=1e-05, momentum=0.1, affine=True, track_running_stats=True)
        (bn): SyncBatchNorm(64, eps=1e-05, momentum=0.1, affine=True, track_running_stats=True)
        (relu): ReLU()
      )
      (tcn1): unit_tcn(
        (conv): Conv2d(64, 64, kernel_size=(9, 1), stride=(1, 1), padding=(4, 0))
        (bn): SyncBatchNorm(64, eps=1e-05, momentum=0.1, affine=True, track_running_stats=True)
        (relu): ReLU()
        (dropS): DropBlock_Ske()
        (dropT): DropBlockT_1d()
      )
      (relu): ReLU()
      (dropSke): DropBlock_Ske()
      (dropT_skip): DropBlockT_1d()
      (sigmoid): Sigmoid()
      (conv_ta): Conv1d(64, 1, kernel_size=(9,), stride=(1,), padding=(4,))
      (conv_sa): Conv1d(64, 1, kernel_size=(39,), stride=(1,), padding=(19,))
      (fc1c): Linear(in_features=64, out_features=32, bias=True)
      (fc2c): Linear(in_features=32, out_features=64, bias=True)
    )
    (l5): TCN_GCN_unit(
      (gcn1): unit_gcn(
        (down): Sequential(
          (0): Conv2d(64, 128, kernel_size=(1, 1), stride=(1, 1))
          (1): SyncBatchNorm(128, eps=1e-05, momentum=0.1, affine=True, track_running_stats=True)
        )
        (bn0): SyncBatchNorm(384, eps=1e-05, momentum=0.1, affine=True, track_running_stats=True)
        (bn): SyncBatchNorm(128, eps=1e-05, momentum=0.1, affine=True, track_running_stats=True)
        (relu): ReLU()
      )
      (tcn1): unit_tcn(
        (conv): Conv2d(128, 128, kernel_size=(9, 1), stride=(1, 1), padding=(4, 0))
        (bn): SyncBatchNorm(128, eps=1e-05, momentum=0.1, affine=True, track_running_stats=True)
        (relu): ReLU()
        (dropS): DropBlock_Ske()
        (dropT): DropBlockT_1d()
      )
      (relu): ReLU()
      (residual): unit_tcn_skip(
        (conv): Conv2d(64, 128, kernel_size=(1, 1), stride=(1, 1))
        (bn): SyncBatchNorm(128, eps=1e-05, momentum=0.1, affine=True, track_running_stats=True)
        (relu): ReLU()
      )
      (dropSke): DropBlock_Ske()
      (dropT_skip): DropBlockT_1d()
      (sigmoid): Sigmoid()
      (conv_ta): Conv1d(128, 1, kernel_size=(9,), stride=(1,), padding=(4,))
      (conv_sa): Conv1d(128, 1, kernel_size=(39,), stride=(1,), padding=(19,))
      (fc1c): Linear(in_features=128, out_features=64, bias=True)
      (fc2c): Linear(in_features=64, out_features=128, bias=True)
    )
    (l6): TCN_GCN_unit(
      (gcn1): unit_gcn(
        (bn0): SyncBatchNorm(384, eps=1e-05, momentum=0.1, affine=True, track_running_stats=True)
        (bn): SyncBatchNorm(128, eps=1e-05, momentum=0.1, affine=True, track_running_stats=True)
        (relu): ReLU()
      )
      (tcn1): unit_tcn(
        (conv): Conv2d(128, 128, kernel_size=(9, 1), stride=(1, 1), padding=(4, 0))
        (bn): SyncBatchNorm(128, eps=1e-05, momentum=0.1, affine=True, track_running_stats=True)
        (relu): ReLU()
        (dropS): DropBlock_Ske()
        (dropT): DropBlockT_1d()
      )
      (relu): ReLU()
      (dropSke): DropBlock_Ske()
      (dropT_skip): DropBlockT_1d()
      (sigmoid): Sigmoid()
      (conv_ta): Conv1d(128, 1, kernel_size=(9,), stride=(1,), padding=(4,))
      (conv_sa): Conv1d(128, 1, kernel_size=(39,), stride=(1,), padding=(19,))
      (fc1c): Linear(in_features=128, out_features=64, bias=True)
      (fc2c): Linear(in_features=64, out_features=128, bias=True)
    )
    (l7): TCN_GCN_unit(
      (gcn1): unit_gcn(
        (bn0): SyncBatchNorm(384, eps=1e-05, momentum=0.1, affine=True, track_running_stats=True)
        (bn): SyncBatchNorm(128, eps=1e-05, momentum=0.1, affine=True, track_running_stats=True)
        (relu): ReLU()
      )
      (tcn1): unit_tcn(
        (conv): Conv2d(128, 128, kernel_size=(9, 1), stride=(1, 1), padding=(4, 0))
        (bn): SyncBatchNorm(128, eps=1e-05, momentum=0.1, affine=True, track_running_stats=True)
        (relu): ReLU()
        (dropS): DropBlock_Ske()
        (dropT): DropBlockT_1d()
      )
      (relu): ReLU()
      (dropSke): DropBlock_Ske()
      (dropT_skip): DropBlockT_1d()
      (sigmoid): Sigmoid()
      (conv_ta): Conv1d(128, 1, kernel_size=(9,), stride=(1,), padding=(4,))
      (conv_sa): Conv1d(128, 1, kernel_size=(39,), stride=(1,), padding=(19,))
      (fc1c): Linear(in_features=128, out_features=64, bias=True)
      (fc2c): Linear(in_features=64, out_features=128, bias=True)
    )
    (l8): TCN_GCN_unit(
      (gcn1): unit_gcn(
        (down): Sequential(
          (0): Conv2d(128, 256, kernel_size=(1, 1), stride=(1, 1))
          (1): SyncBatchNorm(256, eps=1e-05, momentum=0.1, affine=True, track_running_stats=True)
        )
        (bn0): SyncBatchNorm(768, eps=1e-05, momentum=0.1, affine=True, track_running_stats=True)
        (bn): SyncBatchNorm(256, eps=1e-05, momentum=0.1, affine=True, track_running_stats=True)
        (relu): ReLU()
      )
      (tcn1): unit_tcn(
        (conv): Conv2d(256, 256, kernel_size=(9, 1), stride=(1, 1), padding=(4, 0))
        (bn): SyncBatchNorm(256, eps=1e-05, momentum=0.1, affine=True, track_running_stats=True)
        (relu): ReLU()
        (dropS): DropBlock_Ske()
        (dropT): DropBlockT_1d()
      )
      (relu): ReLU()
      (residual): unit_tcn_skip(
        (conv): Conv2d(128, 256, kernel_size=(1, 1), stride=(1, 1))
        (bn): SyncBatchNorm(256, eps=1e-05, momentum=0.1, affine=True, track_running_stats=True)
        (relu): ReLU()
      )
      (dropSke): DropBlock_Ske()
      (dropT_skip): DropBlockT_1d()
      (sigmoid): Sigmoid()
      (conv_ta): Conv1d(256, 1, kernel_size=(9,), stride=(1,), padding=(4,))
      (conv_sa): Conv1d(256, 1, kernel_size=(39,), stride=(1,), padding=(19,))
      (fc1c): Linear(in_features=256, out_features=128, bias=True)
      (fc2c): Linear(in_features=128, out_features=256, bias=True)
    )
    (l9): TCN_GCN_unit(
      (gcn1): unit_gcn(
        (bn0): SyncBatchNorm(768, eps=1e-05, momentum=0.1, affine=True, track_running_stats=True)
        (bn): SyncBatchNorm(256, eps=1e-05, momentum=0.1, affine=True, track_running_stats=True)
        (relu): ReLU()
      )
      (tcn1): unit_tcn(
        (conv): Conv2d(256, 256, kernel_size=(9, 1), stride=(1, 1), padding=(4, 0))
        (bn): SyncBatchNorm(256, eps=1e-05, momentum=0.1, affine=True, track_running_stats=True)
        (relu): ReLU()
        (dropS): DropBlock_Ske()
        (dropT): DropBlockT_1d()
      )
      (relu): ReLU()
      (dropSke): DropBlock_Ske()
      (dropT_skip): DropBlockT_1d()
      (sigmoid): Sigmoid()
      (conv_ta): Conv1d(256, 1, kernel_size=(9,), stride=(1,), padding=(4,))
      (conv_sa): Conv1d(256, 1, kernel_size=(39,), stride=(1,), padding=(19,))
      (fc1c): Linear(in_features=256, out_features=128, bias=True)
      (fc2c): Linear(in_features=128, out_features=256, bias=True)
    )
    (l10): TCN_GCN_unit(
      (gcn1): unit_gcn(
        (bn0): SyncBatchNorm(768, eps=1e-05, momentum=0.1, affine=True, track_running_stats=True)
        (bn): SyncBatchNorm(256, eps=1e-05, momentum=0.1, affine=True, track_running_stats=True)
        (relu): ReLU()
      )
      (tcn1): unit_tcn(
        (conv): Conv2d(256, 256, kernel_size=(9, 1), stride=(1, 1), padding=(4, 0))
        (bn): SyncBatchNorm(256, eps=1e-05, momentum=0.1, affine=True, track_running_stats=True)
        (relu): ReLU()
        (dropS): DropBlock_Ske()
        (dropT): DropBlockT_1d()
      )
      (relu): ReLU()
      (dropSke): DropBlock_Ske()
      (dropT_skip): DropBlockT_1d()
      (sigmoid): Sigmoid()
      (conv_ta): Conv1d(256, 1, kernel_size=(9,), stride=(1,), padding=(4,))
      (conv_sa): Conv1d(256, 1, kernel_size=(39,), stride=(1,), padding=(19,))
      (fc1c): Linear(in_features=256, out_features=128, bias=True)
      (fc2c): Linear(in_features=128, out_features=256, bias=True)
    )
    (Head0): SeparateFCs()
    (BNNecks): SeparateBNNecks(
      (bn1d): SyncBatchNorm(9984, eps=1e-05, momentum=0.1, affine=True, track_running_stats=True)
    )
  )
)
[W TensorIterator.cpp:918] Warning: Mixed memory format inputs detected while calling the operator. The operator will output contiguous tensor even if some of the inputs are in channels_last format. (function operator())
…
